checkpoint.pth (torch_old, 28463 bytes, 6 tensors)

fc1.weight f4 [64, 37]
00000000: 5b6d 3fbd 9e9b ab3d ec77 0cbe 7a0d adbd
00000010: fcab a1bd aa98 21bb 649a 13bd 2529 4c3e
00000020: cb09 16be 608c b2be 1996 6abe 5bbd a2bd
00000030: ffb0 0d3c 07e9 e53b fdc3 dabd e63d 483d
00000040: d463 5d3c 12ba 0a3e 9c65 a5bd 3994 2c3d
00000050: 1659 cbbc c39b f33b e82d 003e 1a52 4f3e
00000060: 86ad e1be a471 8a3d ec3c 80b9 05b2 2cbe
00000070: 2be0 01be 4360 5cbe 7434 bbbd b8d6 0e3e
00000080: 3db1 94bd 64d2 5cbd 6ec4 f8bd f454 82be
00000090: 5022 86bd 5838 1d3e 6d1b 1c3e 1080 da3d
000000a0: 8d4c 0f3e 1125 53bd 8905 f53d 20ab 56be
000000b0: f91e a3bd af80 1bbe f66b 38be 0f74 f83d
000000c0: e5be 923d ee49 2cbd f49d 173e 0bdc 3d3e
000000d0: 3bb6 bf3d a284 143d c516 ef3d b83f f53d
000000e0: 48f3 f7bc 0c14 ca3c 57e0 2ebe 10b9 cdbd
000000f0: 1372 3bbd 1e7b 8fbd cc9a 743d e818 95bc
00000100: adea 773d 6d8c 6abd 7505 6a3d 1a54 3d3e
00000110: 80ad 3b3d 87dc 903d d000 cdbd 7c5e 0fbf
00000120: abb2 343c 258b 643b 8e1a b63d 71f1 8a3d
00000130: f3f3 0e3e 4d6e 033e 979a 60bd e671 28bf
00000140: b0f5 463e ce9f bb3e 92f0 56bd 3c34 27bf
00000150: 2e72 0abd c1c3 01bd 310e 373d 23be 8a3d
00000160: a42b 42bb 19b7 e53d c4e6 453e d5fa b33d
00000170: fd62 3fbb 0341 4cbd 17fd 2fbe 13a6 b5ba
00000180: be5e 713d 5881 363d a0f3 803e cff5 0fbe
00000190: 9782 543d f59a 5e3e f8d1 303e 2242 37bd
000001a0: 2e10 acbe ae31 f63d a492 253d baf0 babd
000001b0: b71f c6bd cf64 393d 671b 123c 7783 9e3d
000001c0: a443 97be 4bad 9d3e 31c1 043d eee3 0abf
000001d0: 7bfe 62bd 8642 873e 31d6 513e d08b 19bf
000001e0: 2914 79be 0bb9 e83c ac1a a6bc e99b e7bc
000001f0: 2eb9 41bd 0145 82be a3e7 80bd 90ee 053e
00000200: 3c4a b6bd 9b88 5dbe d435 17bf c464 8f3d
00000210: 5c7e c6bd 737e f2bd 0b47 3d3e d6a5 5e3d
00000220: 0ce9 323d 133f 8fbe 295c 4c3d 9209 9c3e
00000230: bd72 c03e 9f3f 2f3e 02b2 8abd c448 38bd
00000240: 88c0 92bd f70e 03bf 45bb 123e 169b 31bc
00000250: babd 30be 052b f3bc 88df f8bd 4c9a 72bd
00000260: 005c db3d 0dfb a03e 7f1c 34bf c460 aabe
00000270: 0107 cebe 7e27 dfbf beb3 74bb 1c97 70bd
00000280: 94a5 0bbc af6a 39bd b93c 6d3d cfac a0bd
00000290: 7cff 10be 8f4b 66bd 990c f03c 74fd 773e
000002a0: dd77 803c 0c32 e7bb ccfd 11bd 5bfa 5e3d
000002b0: 60c2 143e ef51 0e3d 0f9d ba3e 0a3f 8bbd
000002c0: a358 49be 98d9 0fbf 417b 383c c69b d13d
000002d0: 773f 2a3d 30d9 1d3e e537 193e 4238 cd3c
000002e0: da3e 583c c11c af3d d526 37bd 2f05 fabc
000002f0: 9cf1 c93d cd7c 993d 1d0a a93d c0be 403e
00000300: 9bf5 ff3d 2b10 9d3d 79a7 bebd 34a9 bdbd
00000310: 8ef4 36bc 66fd bb3d 2d82 793d a8d7 b03d
00000320: fc45 ae3c 178e 3d3d 2943 5abd 171d 25bd
00000330: 45ae c43b fd99 bc3d 457f d93d f1ce b33d
00000340: c1bb 1d3e da02 103e 8982 7e3d d2b7 83bd
00000350: 29cf d33c 4cda 093e 38fb e43d aaf7 a53e
00000360: 65a1 08bf 1007 1abf 13ae e8be 588f fdbf
00000370: 823f 00bd dc35 9aba 4958 eb3c 851d 34be
00000380: 62d5 4bbd bb12 47bd a0b6 abbd 7f90 f8bc
00000390: f9a9 d6bd 5607 68bc ed75 81be ef98 4d3e
000003a0: 17b9 a9bd 0d2e 043e 988d d73d 2527 15be
000003b0: 3c0a 48bc c2d6 4b3c dead e0bd c981 39be
000003c0: 19a9 0dbd 0591 54be b7b7 b2bb afaa 633d
000003d0: b65d b8bd 12fc a6be 0e6e 593e fc51 f2bc
000003e0: 11ed 14be 2c12 6cbe 4786 89bd b411 c93c
000003f0: d648 99bc 56c5 ccbc f201 653d a0ba 7cbe
-0.04673515 0.08379291 -0.13717622 -0.08449836 -0.078941315 -0.0024657645 -0.03603591 0.1993757
-0.14652173 -0.34872723 -0.2290882 -0.07946273 0.008648156 0.0070163044 -0.10681913 0.048887156
0.01351257 0.13547543 -0.08076021 0.042133544 -0.024822753 0.0074343397 0.12517512 0.20246163
-0.440777 0.067599565 -0.00024459453 -0.16864784 -0.1268317 -0.21521096 -0.09140864 0.13949096
-0.07260368 -0.05391158 -0.12146841 -0.2545544 -0.06549513 0.15353525 0.15244837 0.10668957
0.13994046 -0.05154902 0.11963946 -0.20963717 -0.07964892 -0.15185808 -0.18009934 0.121315114
0.071653165 -0.042062692 0.14806348 0.18540971 0.093609296 0.0362593 0.11674265 0.11975044
-0.030267373 0.024667762 -0.17077766 -0.100450635 -0.045763087 -0.070059046 0.05971794 -0.018200353
0.06052654 -0.057262827 0.05713411 0.18489113 0.04581976 0.07073312 -0.100099206 -0.56003547
0.011028926 0.0034872976 0.08891784 0.067843325 0.13960247 0.12835045 -0.05483493 -0.65798795
0.1942966 0.3664536 -0.05247552 -0.6531408 -0.033800296 -0.031680826 0.04469127 0.06774547
-0.0029628063 0.11216564 0.19326311 0.08788077 -0.0029203289 -0.049866688 -0.1718639 -0.0013858698
0.058928244 0.044556946 0.2518587 -0.14058612 0.051882353 0.21738799 0.17267597 -0.044740804
-0.33606094 0.120211944 0.04042305 -0.09127946 -0.09674018 0.045262154 0.008917666 0.07739919
-0.29543793 0.30796275 0.032410804 -0.54254043 -0.055418473 0.2641794 0.20491864 -0.5997896
-0.24324097 0.028408548 -0.02027639 -0.028272586 -0.04729574 -0.2544327 -0.06294181 0.13079286
-0.08900878 -0.21634142 -0.5906651 0.070016414 -0.0969207 -0.118405245 0.18484132 0.054357372
0.043679282 -0.2797781 0.04989258 0.30476052 0.37587538 0.17114113 -0.067722335 -0.04499127
-0.07165629 -0.5119471 0.1432925 -0.010840198 -0.17259875 -0.0296836 -0.1215201 -0.05922918
0.10710907 0.31441537 -0.7035598 -0.3327695 -0.4023972 -1.7433927 -0.003733858 -0.05873786
-0.008523364 -0.045267757 0.057919238 -0.078454606 -0.1415996 -0.056224402 0.029302882 0.24217778
0.015682155 -0.0070555266 -0.03564243 0.054437976 0.14527273 0.034746107 0.3644795 -0.06799133
-0.19662718 -0.56191397 0.011259855 0.102347896 0.04156443 0.15414882 0.14962728 0.02505124
0.013198579 0.08550406 -0.044714767 -0.03052005 0.098605365 0.07494507 0.08253882 0.18822765
0.124980174 0.076690994 -0.093092866 -0.092607886 -0.011166705 0.09179191 0.06091516 0.08634883
0.021273606 0.046278086 -0.053286705 -0.040310945 0.00600222 0.092090584 0.10619978 0.08779705
0.15403654 0.14063588 0.062136207 -0.06431545 0.025855618 0.1346218 0.11180729 0.32415515
-0.5337127 -0.60167027 -0.45445308 -1.980937 -0.031310566 -0.0011765319 0.028728621 -0.17589386
-0.049764045 -0.048601847 -0.08384442 -0.030342339 -0.104816385 -0.014161905 -0.25285283 0.20077871
-0.08287256 0.12908192 0.10525054 -0.14565714 -0.012209471 0.012441339 -0.109706625 -0.18115915
-0.034585092 -0.20758446 -0.0054540294 0.0555827 -0.09002249 -0.3261419 0.21233389 -0.029580109
-0.14543559 -0.23053807 -0.067150645 0.024544574 -0.018711489 -0.02499644 0.05591006 -0.24680567

fc1.bias f4 [64]
00000000: fc49 d23d b8a6 453d ab0c e7bd a841 dfbc
00000010: cfa4 2f3e 2b41 283d fb98 12be d191 063e
00000020: 3b27 f83d 7652 02be 2b8c 3e3e 07e2 143e
00000030: e045 4c3e c507 113d 23f7 8fbc 44d6 97bd
00000040: 51e7 273d 9d67 9ebd fa0e fb3c e249 fcbd
00000050: c958 cfbd 573b 513d de37 85bb 408b 66bd
00000060: ff9d 39be 740e 633d 997a 54bb d03d e0bd
00000070: 4882 3e3e 8977 ec3d ca64 8cbd 0cef 5dbe
00000080: 2401 4c3e 504c e93c 7cfa abbd 02b3 c73d
00000090: 5f6f bfbd 5471 073d be51 dfbd 4f7b 41be
000000a0: 4d9d 1abd 2294 37bd 8311 d3bd f0ff fb3d
000000b0: 12ae 323d f828 8abd de4a 9b3d 5109 b8bd
000000c0: 4b80 1ebe a842 a6bc 6bab 42be c195 eb3d
000000d0: 00a7 3c3c 3621 95bd dd58 34be 158b b23c
000000e0: 43d3 dd3d efc4 3abd 68e8 3ebd 0e9e 90bd
000000f0: 2c29 c5bb e8ac 0c3e a650 89bc a241 523d
0.10268018 0.0482547 -0.11281713 -0.027252987 0.17152713 0.041077774 -0.1431617 0.13141562
0.121168576 -0.12726769 0.18608157 0.14539348 0.1994853 0.0354078 -0.017573899 -0.07413915
0.040992085 -0.077346064 0.03064679 -0.123187795 -0.10124356 0.05108198 -0.004065498 -0.056285143
-0.18126677 0.055433705 -0.0032421707 -0.1094929 0.18604386 0.11546237 -0.068551615 -0.2167322
0.1992231 0.028478771 -0.083973855 0.0975094 -0.09347414 0.033067062 -0.10904263 -0.18894695
-0.03774767 -0.044819005 -0.103060745 0.123046756 0.043623038 -0.067460954 0.07582639 -0.08986152
-0.15478627 -0.020295456 -0.19010703 0.11503173 0.011514425 -0.07281725 -0.17612024 0.021794835
0.108313106 -0.045597967 -0.04660836 -0.070613965 -0.006016871 0.13737833 -0.016762089 0.051332124

fc2.weight f4 [64, 64]
00000000: 06e9 4ebc 41a9 1c3d 1381 823e 5b45 8dbd
00000010: 3134 523d 734c 85bd 2cdc a83d 9d3c 52bd
00000020: b2b9 2f3e 00dc 8e3d 6eca 51bd 84a1 f5bc
00000030: 14cc 72bd 3f62 b53d 5efb 25bd dfa8 fe3c
00000040: 2144 f0bd 46f0 cabd a15f 773c 5fda 71bc
00000050: 923e 90bd e733 a73d a7c8 a23d 3c01 9dbd
00000060: 7dc6 8cbc 6eb7 97bd 09af a83d 6e70 aa3d
00000070: 92a6 26bb b6e2 81be bf9b 2f3d 638e ddbd
00000080: e3fe 2b3e 1584 07ba 51af 5d3d 625a 673d
00000090: a60d 543d 0ba8 da3d acd3 233e 5f94 03bd
000000a0: fd11 a1be e2b0 db3d 9563 663e f280 ba3c
000000b0: 57bb d03d cf9c 12bd 5ffc a4bd 3e9b e83d
000000c0: 04e4 73bd 7f44 32be ffbc b2bd f52f ee3c
000000d0: 6efe 98bd 7430 59be c633 963d 6438 4abd
000000e0: 66c2 873c 4fba 413d 07b1 c1be b5ad a93d
000000f0: 1a80 173e 8661 bc3d a725 5cbe 816a ba3d
00000100: f589 12be e348 5a3e 1f9e 59be e7d8 803d
00000110: 7a0a a63d 3d0a b83e 21a7 f3bc 590e 2c3c
00000120: 0d27 4bbe 311d 8cbe fe6b ab3d e495 d0b9
00000130: 131d 6abc 897c 1cbe 4d7a 2fbd 7031 3e3e
00000140: 2753 8f3d 1fca d83d 21dd 71bd ecda 12bd
00000150: e441 cc3b a372 55bd a0c3 063e 02bb 543d
00000160: d428 0cbc f46b 433d 3151 f2bd ab1b 82be
00000170: 8cdf 9e3d 3131 973e c3bf 2b3e 4d5d b3bd
00000180: 73c3 963d e3f4 1f3e f4d0 063e 2725 a03b
00000190: 6c49 b5bc bd20 55bd 2f7c 20bd 1d12 b63b
000001a0: 27e5 7c3d 11e4 07bf f910 05be 49bb 86be
000001b0: f973 09be 18d4 ba3d f9bd 03bc f10e ecbc
000001c0: 9309 35bd 3b1f 69be a525 df3d 6e71 df3d
000001d0: 59d8 11be dc31 8abd 92c4 80be 4882 5e3e
000001e0: b0e2 85be d7db a9bd beb7 973e 4b6f a13c
000001f0: f372 1abd c595 31bc 1087 91bd 5638 20be
00000200: 56a5 cabd 2330 25bc 5f6a 843d 019f 313e
00000210: 30a1 dfbd f780 08be 9a2d a53c 49a6 20be
00000220: 1b85 d63d 0698 b93e 79ed 11be ebb6 ae3b
00000230: c8ae dfbd ed14 b4bd 6329 763e 7f6a 413d
00000240: 1191 0ebd 9723 64bd edf9 d13d 79c6 04be
00000250: bde4 a5be 8a11 9e3d 5dd4 dabd c3d7 0f3f
00000260: e1a0 a3bd b588 253e 9f7d 213e c32f 12bf
00000270: 2681 01be 7f01 dbbd e7fb 3b3e 6781 19bd
00000280: 7e5f 75be 3532 5bbe 4b4e aebe 7d08 ca3d
00000290: 7af5 833e 380b 743d 8f4d 1a3e 6aa5 ff3d
000002a0: 2376 123e 3be9 77bd eb12 a33c 2632 4fbe
000002b0: c80a b83c 8cc4 353e 3cda b63d af72 2abd
000002c0: 8319 a13d 4c2b dbbd 0851 5abe c7c8 7bbe
000002d0: 6bf0 fdbd c84d 433e b048 adbe 544d 3a3d
000002e0: 64c1 13be 7057 e6be ce19 b43c e005 023e
000002f0: c0c1 173d 00da 2ebc b4e6 84bc 95d2 fabd
00000300: a683 3c3d aa4e 02be d824 ec3d 4bcc 9fbc
00000310: 3fea 9dbe 24d3 22be f8fc 7c3e 5427 89bc
00000320: 3552 8bbe cd03 6ebe 7cc3 4e3e 49ff 58bd
00000330: abcc e73b ccc6 6e3b 7d67 123d cec1 3c3c
00000340: e0cc d53d 731f 403e 9e04 7fbd 8fd7 3abb
00000350: 5574 a7bd 41eb 32bd ffe6 12be f404 56bd
00000360: 1cdf 48ba 3d20 ef3d 0167 42bd 9212 a4be
00000370: 0303 433e e1a3 16bf 8fae 133d 5219 f039
00000380: a9e7 2dbe e6ab 8c3c 44cd 2e3f 6efb bb3e
00000390: c6ef f4bd f446 6fbd b969 823e 4c4d 033d
000003a0: a410 c6bd 3068 28be ebba 033e 6da6 43be
000003b0: 3471 443c 9c1f 163d 8517 013d 62a0 a93d
000003c0: 023e dd3c 0775 7bbe 1477 57be 2b25 923e
000003d0: 3bb0 e0bd 0381 41be 83d1 9bbe b387 6dbb
000003e0: d1ca e7bd de3d 02bd 9d2d fabe 4334 47bd
000003f0: 2b0c 823d f828 23be 7dc4 0cbd 47f8 e2bd
-0.012628799 0.03824735 0.254891 -0.06897994 0.051319305 -0.06508722 0.082451195 -0.051327337
0.17160681 0.069755554 -0.051218443 -0.029984243 -0.059276655 0.088566296 -0.040522926 0.031086383
-0.117317446 -0.0990911 0.015098483 -0.014761536 -0.07043184 0.081641965 0.07948428 -0.07666251
-0.01718449 -0.07408033 0.0823651 0.083222255 -0.0025428873 -0.2536828 0.04287314 -0.10818174
0.1679645 -0.0005169523 0.054122273 0.05648268 0.05177083 0.10676583 0.15998715 -0.03212392
-0.31459036 0.10727097 0.22498925 0.022766564 0.10191982 -0.035794076 -0.080559485 0.11357735
-0.059543625 -0.17408942 -0.087274544 0.029075602 -0.074704036 -0.2120989 0.07334094 -0.049370185
0.016572189 0.04729682 -0.37830374 0.08285085 0.1479496 0.091982886 -0.21498738 0.09102345
-0.14310439 0.21316867 -0.21251725 0.06291371 0.08107467 0.3594531 -0.02974278 0.010501468
-0.19839115 -0.2736602 0.08370207 -0.0003978453 -0.014289158 -0.15281881 -0.042841244 0.18573546
0.06998282 0.105854265 -0.059048776 -0.03585331 0.0062334407 -0.05211128 0.13160563 0.051936157
-0.008554656 0.047710374 -0.11831892 -0.25411734 0.07757482 0.29529718 0.1677237 -0.0875803
0.07361498 0.1562076 0.13165647 0.0048872414 -0.022129737 -0.052033175 -0.03918093 0.0055563585
0.061741974 -0.53082377 -0.12994756 -0.26314762 -0.13423146 0.09122485 -0.0080408985 -0.028815718
-0.044198584 -0.2276582 0.10895852 0.10910307 -0.14242686 -0.06747791 -0.2514997 0.21729386
-0.2614951 -0.08293884 0.29632372 0.019706389 -0.03770728 -0.0108389305 -0.07105839 -0.1564649
-0.098948166 -0.0100822775 0.06465601 0.17345811 -0.10919416 -0.13330446 0.020163346 -0.15688433
0.104746066 0.36248797 -0.14250745 0.005331864 -0.10922009 -0.08793054 0.24039225 0.047220703
-0.034806315 -0.055698004 0.10252748 -0.12966336 -0.32401076 0.07718189 -0.10685036 0.561886
-0.079896696 0.16165431 0.15770577 -0.5710413 -0.12646922 -0.10693645 0.18357812 -0.037476923
-0.23962209 -0.21405871 -0.34044108 0.098649 0.2577322 0.05958101 0.15068649 0.12482722
0.14302878 -0.06052516 0.019906482 -0.20233974 0.022466078 0.17750758 0.08928344 -0.041613277
0.07866194 -0.107016176 -0.21319973 -0.24588309 -0.12399372 0.1907264 -0.3384452 0.045483902
-0.14429241 -0.44988585 0.02198496 0.12697554 0.03705001 -0.010672092 -0.01622329 -0.122471966
0.046023987 -0.1272532 0.11530465 -0.019506594 -0.30842778 -0.15900856 0.24705875 -0.016742386
-0.27211156 -0.23243637 0.20191759 -0.052977834 0.007073959 0.003643441 0.035743225 0.011520816
0.104394674 0.18761997 -0.062260263 -0.002850983 -0.081764854 -0.043681387 -0.1434593 -0.052250817
-0.00076626404 0.11676071 -0.047461513 -0.32045418 0.19044118 -0.5884381 0.036055144 0.00045795232
-0.16982903 0.017171811 0.6828196 0.36715263 -0.11959796 -0.058417276 0.25471285 0.032056138
-0.09671143 -0.16445994 0.12864272 -0.19106455 0.01198988 0.03665124 0.03151657 0.08282544
0.027007107 -0.24556361 -0.21041518 0.28543982 -0.10971113 -0.1889687 -0.30433282 -0.0036244213
-0.11317981 -0.031797282 -0.48862925 -0.048633825 0.06349977 -0.15933597 -0.034367073 -0.110825114

fc2.bias f4 [64]
00000000: ddbc eb3d 32cf 10bc b178 e23c c0d7 623d
00000010: 5f58 a63e fcda 23be 1061 bdbd f261 3aba
00000020: 6bf9 ef3d 209e ca3e 1625 85bb 91f4 253e
00000030: 1e7a e83d ecb9 293c aede 5cbd e3fd 873c
00000040: 1336 37bc 3b63 803d f7d3 d3bd 0b01 0d3e
00000050: 2c76 ea3d a03f e53e 93c6 84be 2322 0abe
00000060: ce80 91bd 9a90 19be acb6 e5bc af0c 22bb
00000070: ccfe 003c 39de 673d 697d 083d 8fee a1bc
00000080: f21c 293c 6a94 3a3e ecc8 30bc 76b1 673d
00000090: b600 bfbd 72f3 08be 69fa 163e 9a94 1bbd
000000a0: 3801 303d 469b b73e ed9e 6b3e 021d 9cbc
000000b0: 9478 633e 2c1f 9cbd 1237 933d 56bc 2cbe
000000c0: 84d5 4ebc 0772 3bbe 193d 8fbc fd2e a33e
000000d0: 7757 37bd f6cb ed3b 7569 8b3d 9af1 76bd
000000e0: e275 06be 0b63 12be 97ec f53c 9739 62be
000000f0: b2af 543c d29b ae3d b802 73bd 52fa 17be
0.11510632 -0.008838462 0.02764544 0.055381536 0.32489297 -0.16001505 -0.09247029 -0.0007109932
0.117174946 0.39573765 -0.004063259 0.16206576 0.11351417 0.010359269 -0.0539233 0.016600555
-0.011182326 0.06268927 -0.103431635 0.13769929 0.11448321 0.44775105 -0.2593275 -0.13489585
-0.07104646 -0.14996567 -0.028041206 -0.0024726798 0.007873248 0.056608412 0.033322725 -0.019767074
0.0103218425 0.18220678 -0.010790091 0.056565724 -0.093263075 -0.13374117 0.14743961 -0.037983514
0.042969912 0.35860652 0.23009844 -0.0190568 0.22213966 -0.07623133 0.07188238 -0.1686872
-0.012624148 -0.18305217 -0.017485188 0.31871787 -0.044761147 0.00725698 0.06807224 -0.060289003
-0.13130906 -0.14295594 0.030020041 -0.22092281 0.012981342 0.08525814 -0.059328765 -0.14841583

fc3.weight f4 [4, 64]
00000000: bbb3 b03c c861 043e 967d 993e 033f b93e
00000010: 8b35 263e 49d6 21bf ef4e 0d3e 89b0 e0bd
00000020: ac3a f63e f87f 223e c70a 373f 8cd7 623d
00000030: 8bfc cb3d edf4 803d 6c38 efbe 6ab2 73be
00000040: 3b62 6e3e 29db 853e 0b5f 8bbd ca1b 473e
00000050: fe2b b33d 1858 223e 340f 76bd 713b b6be
00000060: ceda 08bf ce5b 9abe 739d 36be c64d 72bd
00000070: 8bfe 863d a80c 563e d32b 0abf b2b9 5a3e
00000080: b797 ad3e 4d95 2c3e c3f5 5f3f 595d a83e
00000090: 4d47 d83e e89d c7be 8134 3a3e 8387 8a3e
000000a0: ef0c ef3e 3438 293e e6da 263e 65b9 b33e
000000b0: d9e6 433e 9c6e 52be de0a 1d3e 779b b53e
000000c0: e9c7 98be e4e2 013e 8418 0f3e b724 383e
000000d0: 1ff1 a03d 1dec 793e 99d6 613d 472c 863d
000000e0: 8ef3 f3bc da40 9dbd 811e d93d 8ea7 0dbd
000000f0: debf 7bbe 3652 b43d d56c 00bd ecef 173e
00000100: 0d62 483e 530f 513e 73ae 223f 67bd 003f
00000110: 21d1 f63d 61c3 5fbe 0586 b43d bd49 193d
00000120: 3f09 b23e 9d7b 093e 9c7c 283f 5223 4e3e
00000130: d512 9c3d 5ccb 2d3e 95ed 65be 01a1 30bd
00000140: e431 a93e b530 793e 0243 63be b487 303e
00000150: 8d01 213e 1aab 553e 0782 75bc 8284 14be
00000160: 0094 05bd 7255 1abe f86c b1bd bb98 b53d
00000170: a985 c13b 0f77 233e 1dc4 9b3d 98c3 523e
00000180: 84d9 a03e 4d0c d53c 83db 213f 6bf2 aabe
00000190: 326b 983e 50ca 80be b929 773e 7a03 54bd
000001a0: 0396 ca3e ebc4 263e 0b51 103e 6f31 bf3e
000001b0: c2ba ff3d b30d 98be bea1 d23d caf1 16bd
000001c0: 080a 5e3e 399a 693e 2213 c23d 8fa2 2e3e
000001d0: f7fe c43d 95fc 993e 45cc 2c3e 90fe c13d
000001e0: e14d 99bd f8e3 2ebe f2f2 563e d652 27be
000001f0: 19e5 31be 88c1 fbbc bbaf 60be 4653 693e
00000200: 532a fd3c 833e a63e 0b73 a7bd 0df1 113f
00000210: 819e 533e 41d1 72bd 10f0 a53e 155c d03d
00000220: e03a e13d e80b 093e e225 d03e b527 9c3e
00000230: c0ed 5f3e 2172 74bd 879d 5bbd 66e3 ac3d
00000240: e2d4 93bd f741 293e a842 8abe a708 e83d
00000250: 5175 643e 692a 553e 0f86 4dbe beec f6bc
00000260: f8fc bd3d 36c5 8dbe d391 e7bc f923 48bd
00000270: b81b a13e cb2e e43d 83bb 57be 9e5a 0a3e
00000280: a44c 8c3e 3a48 463d 9f8c 4c3f 172a 893e
00000290: 2219 de3d 3030 33be bbf1 103e a7cd ebbd
000002a0: 1448 b43d 58ab 433e 3271 873e dda5 473e
000002b0: 302d 363e c8dd 1bbf 37fa 103e 0a4f a63e
000002c0: 3c53 f9bc 0d55 8ebd a516 683e 68be 553e
000002d0: 9de8 f13d 353b 053f c461 9b3e 5bb1 8b3e
000002e0: 6d08 9dbe b126 98bd c038 5c3e a88b 25be
000002f0: a178 4dbe 8561 3d3d 1a7b eebd ca76 c63e
00000300: 6cf0 ea3d 7bd2 163e d223 f23e 3e3c db3d
00000310: c8c5 8f3d fee2 1cbf a203 873e 21ee e73d
00000320: b5ff ab3e 9b93 323e da4e 683f 8b3a 79bd
00000330: 921b b93c a605 983e 692c 44be 7b25 7fbd
00000340: f235 573f e7d9 d83d 9bc7 2cbe 3ebc 0a3e
00000350: 2034 c43d 4e9d 5d3e cf02 81be 5304 3e3d
00000360: 85b1 ae3d c0f1 5ebc 6df5 08bd ec2c 1c3e
00000370: 65be 6d3e 10b8 953d 5b3c 5cbe 9c05 293e
00000380: 7ed7 11be 670a fc3d 22ec ea3e acb6 963e
00000390: c89c a83e 0be7 133e c963 ad3e 5deb 3d3d
000003a0: 73f9 033e 95d8 2f3e 98e2 383e 1c3b b8be
000003b0: 7078 3c3e 02ef 82be b1c2 0f3e cccd 98be
000003c0: 739b babd c7b0 cfbd 40ad 383f 6093 533e
000003d0: 3d45 073f e8d3 f33d c1ab 303e 5e67 113e
000003e0: 65a9 6b3d c307 c0bd faf9 a53e a9df 32be
000003f0: 0b5f 4bbe 6c30 883c e8a9 3cbd e59a 7a3e
0.021570077 0.12927926 0.29978627 0.36180887 0.16231363 -0.632176 0.13799642 -0.109711714
0.48091638 0.15869129 0.7150082 0.055381343 0.09960278 0.06296716 -0.46722734 -0.23798528
0.2327966 0.26143768 -0.068052374 0.19444194 0.08748625 0.15853918 -0.060073093 -0.35592225
-0.5345887 -0.30148166 -0.178335 -0.0591562 0.06591519 0.20903265 -0.5397312 0.213599
0.33904812 0.16853829 0.8748438 0.3288372 0.42241898 -0.3898766 0.18184091 0.27056512
0.46689555 0.16525346 0.1629444 0.35102382 0.1913103 -0.20550007 0.15336177 0.35470173
-0.2984002 0.12684208 0.13974196 0.17982756 0.0785849 0.24406476 0.055136297 0.06551414
-0.029779222 -0.07678385 0.10601521 -0.03458362 -0.2458491 0.08804743 -0.03135379 0.14837617
0.19568653 0.20416002 0.6354744 0.50289005 0.12051607 -0.21851875 0.08814625 0.037423838
0.3477268 0.13426061 0.6581514 0.20130661 0.076207794 0.16972107 -0.22453912 -0.043122295
0.33045876 0.24334987 -0.2219353 0.17239267 0.15723248 0.20866051 -0.014984614 -0.14503673
-0.032611847 -0.15071657 -0.08663362 0.08867022 0.005905826 0.15963386 0.07605765 0.20582426
0.3141595 0.026006842 0.63225573 -0.33388075 0.29769284 -0.25154352 0.2413701 -0.051761128
0.39567575 0.16286056 0.14093415 0.37342402 0.12486793 -0.29697952 0.10284756 -0.03685168
0.21683514 0.22812738 0.094763055 0.17054199 0.09618943 0.30075517 0.16874798 0.09472382
-0.07485557 -0.1707915 0.20991114 -0.16340193 -0.1737255 -0.030731931 -0.21942036 0.22785673
0.03090397 0.32469568 -0.081762396 0.5700844 0.20665933 -0.05928159 0.32409716 0.10173813
0.10997558 0.13383448 0.40653902 0.30499044 0.21868038 -0.059679154 -0.053617027 0.0844181
-0.072183385 0.1652907 -0.2700398 0.11329775 0.22310378 0.2081696 -0.2007067 -0.030142184
0.092767656 -0.27689523 -0.028267777 -0.04886243 0.3146646 0.111417376 -0.21067624 0.1351113
0.27402222 0.048408724 0.7990207 0.26789925 0.108446375 -0.17498851 0.14154713 -0.115138344
0.0880281 0.19108331 0.2645355 0.19496866 0.17790675 -0.60885286 0.1415795 0.32482177
-0.030435197 -0.06949816 0.22664888 0.20873415 0.118119456 0.5204347 0.30348027 0.2728375
-0.3067049 -0.07429255 0.21506023 -0.16166556 -0.20065548 0.04623558 -0.116445735 0.38762504
0.11471638 0.1472873 0.47292954 0.1070485 0.07020146 -0.6128386 0.2636996 0.11324716
0.33593526 0.1743912 0.9074532 -0.060846847 0.022596154 0.2969181 -0.19157566 -0.062291604
0.8406669 0.105884366 -0.16873018 0.13548371 0.095802546 0.21642038 -0.25197455 0.046390843
0.08529953 -0.013607442 -0.03343718 0.15251511 0.23217161 0.07310498 -0.21507399 0.16506046
-0.1424236 0.123066716 0.4588328 0.29436243 0.32932115 0.14443605 0.33865193 0.046367038
0.12888126 0.17172463 0.18055189 -0.35982597 0.18405318 -0.25572973 0.14039113 -0.2984451
-0.09111681 -0.101411395 0.7213936 0.20661688 0.52840024 0.11905652 0.17253019 0.14199588
0.057534594 -0.093764804 0.3241728 -0.17468132 -0.19860475 0.016624652 -0.046060473 0.2447315

fc3.bias f4 [4]
00000000: dee2 873e 9e73 673e 078c f13d dfc0 1c3e
0.26540273 0.22602698 0.11794286 0.1530795
